1668417711437 VM-0-6-ubuntu info ClearML Task: created new task id=f7638af70a2c4d9097d7a6af62104c6d
1668417717694 VM-0-6-ubuntu info ClearML results page: https://app.clear.ml/projects/47653afbe94d48e78c3a21457c8b89b4/experiments/f7638af70a2c4d9097d7a6af62104c6d/output/log
1668417740076 VM-0-6-ubuntu error Overriding model.yaml nc=80 with nc=1

                 from  n    params  module                                  arguments
  0                -1  1      5280  models.common.Conv                      [3, 48, 6, 2, 2]
  1                -1  1     41664  models.common.Conv                      [48, 96, 3, 2]
  2                -1  2     65280  models.common.C3                        [96, 96, 2]
  3                -1  1    166272  models.common.Conv                      [96, 192, 3, 2]
  4                -1  4    444672  models.common.C3                        [192, 192, 4]
  5                -1  1    664320  models.common.Conv                      [192, 384, 3, 2]
  6                -1  6   2512896  models.common.C3                        [384, 384, 6]
  7                -1  1   2655744  models.common.Conv                      [384, 768, 3, 2]
  8                -1  2   4134912  models.common.C3                        [768, 768, 2]
  9                -1  1         3  models.common.ECA                       [768, 768]
 10                -1  1   1476864  models.common.SPPF                      [768, 768, 5]
 11                -1  1    295680  models.common.Conv                      [768, 384, 1, 1]
 12                -1  1         0  torch.nn.modules.upsampling.Upsample    [None, 2, 'nearest']
 13           [-1, 6]  1         0  models.common.Concat                    [1]
 14                -1  2   1182720  models.common.C3                        [768, 384, 2, False]
 15                -1  1     74112  models.common.Conv                      [384, 192, 1, 1]
 16                -1  1         0  torch.nn.modules.upsampling.Upsample    [None, 2, 'nearest']
 17           [-1, 4]  1         0  models.common.Concat                    [1]
 18                -1  2    296448  models.common.C3                        [384, 192, 2, False]
 19                -1  1    332160  models.common.Conv                      [192, 192, 3, 2]
 20          [-1, 14]  1         0  models.common.Concat                    [1]
 21                -1  2   1108992  models.common.C3                        [576, 384, 2, False]
 22                -1  1   1327872  models.common.Conv                      [384, 384, 3, 2]
 23          [-1, 10]  1         0  models.common.Concat                    [1]
 24                -1  2   4429824  models.common.C3                        [1152, 768, 2, False]
 25      [17, 20, 23]  1     38070  models.yolo.Detect                      [1, [[10, 13, 16, 30, 33, 23], [30, 61, 62, 45, 59, 119], [116, 90, 156, 198, 373, 326]], [384, 576, 1152]]
YOLOv5_eca summary: 295 layers, 21253785 parameters, 21253785 gradients, 48.8 GFLOPs
1668417743797 VM-0-6-ubuntu error [34m[1mAMP: [0mchecks passed âœ…
[34m[1mAutoBatch: [0mComputing optimal batch size for --imgsz 640
…
