1668394619293 VM-0-6-ubuntu info ClearML Task: created new task id=1d378ef203824f148a33f1c8746114d9
1668394644262 VM-0-6-ubuntu info ClearML results page: https://app.clear.ml/projects/47653afbe94d48e78c3a21457c8b89b4/experiments/1d378ef203824f148a33f1c8746114d9/output/log
1668394663218 VM-0-6-ubuntu error Overriding model.yaml nc=80 with nc=1

                 from  n    params  module                                  arguments
  0                -1  1       464  models.common.conv_bn_hswish            [3, 16, 2]
  1                -1  1       612  models.common.MobileNet_Block           [16, 16, 16, 3, 2, 1, 0]
  2                -1  1      3864  models.common.MobileNet_Block           [16, 24, 72, 3, 2, 0, 0]
  3                -1  1      5416  models.common.MobileNet_Block           [24, 24, 88, 3, 1, 0, 0]
  4                -1  1     13736  models.common.MobileNet_Block           [24, 40, 96, 5, 2, 1, 1]
  5                -1  1     55340  models.common.MobileNet_Block           [40, 40, 240, 5, 1, 1, 1]
  6                -1  1     55340  models.common.MobileNet_Block           [40, 40, 240, 5, 1, 1, 1]
  7                -1  1     21486  models.common.MobileNet_Block           [40, 48, 120, 5, 1, 1, 1]
  8                -1  1     28644  models.common.MobileNet_Block           [48, 48, 144, 5, 1, 1, 1]
  9                -1  1     91848  models.common.MobileNet_Block           [48, 96, 288, 5, 2, 1, 1]
 10                -1  1    294096  models.common.MobileNet_Block           [96, 96, 576, 5, 1, 1, 1]
 11                -1  1    294096  models.common.MobileNet_Block           [96, 96, 576, 5, 1, 1, 1]
 12                -1  1     25088  models.common.Conv                      [96, 256, 1, 1]
 13                -1  1         0  torch.nn.modules.upsampling.Upsample    [None, 2, 'nearest']
 14           [-1, 8]  1         0  models.common.Concat                    [1]
 15                -1  1    308736  models.common.C3                        [304, 256, 1, False]
 16                -1  1     33024  models.common.Conv                      [256, 128, 1, 1]
 17                -1  1         0  torch.nn.modules.upsampling.Upsample    [None, 2, 'nearest']
 18           [-1, 3]  1         0  models.common.Concat                    [1]
 19                -1  1     77568  models.common.C3                        [152, 128, 1, False]
 20                -1  1    147712  models.common.Conv                      [128, 128, 3, 2]
 21          [-1, 16]  1         0  models.common.Concat                    [1]
 22                -1  1    296448  models.common.C3                        [256, 256, 1, False]
 23                -1  1    590336  models.common.Conv                      [256, 256, 3, 2]
 24          [-1, 12]  1         0  models.common.Concat                    [1]
 25                -1  1   1182720  models.common.C3                        [512, 512, 1, False]
 26      [19, 22, 25]  1     16182  models.yolo.Detect                      [1, [[10, 13, 16, 30, 33, 23], [30, 61, 62, 45, 59, 119], [116, 90, 156, 198, 373, 326]], [128, 256, 512]]
YOLOv5l_moblienetv3 summary: 317 layers, 3542756 parameters, 3542756 gradients, 6.3 GFLOPs
1668394666717 VM-0-6-ubuntu error [34m[1mAMP: [0mchecks passed âœ…
[34m[1mAutoBatch: [0mComputing optimal batch size for --imgsz 640
…
