1667818992039 VM-0-6-ubuntu info ClearML Task: overwriting (reusing) task id=bbdf60879a79412c8fc0029c54c49212
1667818997824 VM-0-6-ubuntu info ClearML results page: https://app.clear.ml/projects/47653afbe94d48e78c3a21457c8b89b4/experiments/bbdf60879a79412c8fc0029c54c49212/output/log
1667819005511 VM-0-6-ubuntu error Overriding model.yaml nc=80 with nc=1

                 from  n    params  module                                  arguments
  0                -1  1      7040  models.common.Conv                      [3, 64, 6, 2, 2]
  1                -1  1     73984  models.common.Conv                      [64, 128, 3, 2]
  2                -1  3    156928  models.common.C3                        [128, 128, 3]
  3                -1  1    295424  models.common.Conv                      [128, 256, 3, 2]
  4                -1  6   1118208  models.common.C3                        [256, 256, 6]
  5                -1  1   1180672  models.common.Conv                      [256, 512, 3, 2]
  6                -1  9   6433792  models.common.C3                        [512, 512, 9]
  7                -1  1   4720640  models.common.Conv                      [512, 1024, 3, 2]
  8                -1  3   9971712  models.common.C3                        [1024, 1024, 3]
  9                -1  1    131072  models.common.SE                        [1024, 1024]
 10                -1  1   2624512  models.common.SPPF                      [1024, 1024, 5]
 11                -1  1    525312  models.common.Conv                      [1024, 512, 1, 1]
 12                -1  1         0  torch.nn.modules.upsampling.Upsample    [None, 2, 'nearest']
 13           [-1, 6]  1         0  models.common.Concat                    [1]
 14                -1  3   2757632  models.common.C3                        [1024, 512, 3, False]
 15                -1  1    131584  models.common.Conv                      [512, 256, 1, 1]
 16                -1  1         0  torch.nn.modules.upsampling.Upsample    [None, 2, 'nearest']
 17           [-1, 4]  1         0  models.common.Concat                    [1]
 18                -1  3    690688  models.common.C3                        [512, 256, 3, False]
 19                -1  1    590336  models.common.Conv                      [256, 256, 3, 2]
 20          [-1, 15]  1         0  models.common.Concat                    [1]
 21                -1  3   2495488  models.common.C3                        [512, 512, 3, False]
 22                -1  1   2360320  models.common.Conv                      [512, 512, 3, 2]
 23          [-1, 11]  1         0  models.common.Concat                    [1]
 24                -1  3   9971712  models.common.C3                        [1024, 1024, 3, False]
 25      [18, 21, 24]  1     32310  models.yolo.Detect                      [1, [[10, 13, 16, 30, 33, 23], [30, 61, 62, 45, 59, 119], [116, 90, 156, 198, 373, 326]], [256, 512, 1024]]
YOLOv5l+SE summary: 374 layers, 46269366 parameters, 46269366 gradients, 108.3 GFLOPs
1667819009573 VM-0-6-ubuntu error [34m[1mAMP: [0mchecks passed âœ…
[34m[1mAutoBatch: [0mComputing optimal batch size for --imgsz 640
…
