1667960012203 VM-0-6-ubuntu info ClearML Task: created new task id=2605fe5253fb495d93c0dff48b0cab70
1667960018890 VM-0-6-ubuntu info ClearML results page: https://app.clear.ml/projects/47653afbe94d48e78c3a21457c8b89b4/experiments/2605fe5253fb495d93c0dff48b0cab70/output/log
1667960026786 VM-0-6-ubuntu error Overriding model.yaml nc=80 with nc=1

                 from  n    params  module                                  arguments
  0                -1  1      7040  models.common.Focus                     [3, 64, 3]
  1                -1  1     73984  models.common.Conv                      [64, 128, 3, 1]
  2                -1  1         0  models.common.space_to_depth            [1]
  3                -1  3    206080  models.common.C3                        [512, 128, 3]
  4                -1  1    295424  models.common.Conv                      [128, 256, 3, 1]
  5                -1  1         0  models.common.space_to_depth            [1]
  6                -1  6   1314816  models.common.C3                        [1024, 256, 6]
  7                -1  1   1180672  models.common.Conv                      [256, 512, 3, 1]
  8                -1  1         0  models.common.space_to_depth            [1]
  9                -1  9   7220224  models.common.C3                        [2048, 512, 9]
 10                -1  1   4720640  models.common.Conv                      [512, 1024, 3, 1]
 11                -1  1         0  models.common.space_to_depth            [1]
 12                -1  3  13117440  models.common.C3                        [4096, 1024, 3]
 13                -1  1   2624512  models.common.SPPF                      [1024, 1024, 5]
 14                -1  1    525312  models.common.Conv                      [1024, 512, 1, 1]
 15                -1  1         0  torch.nn.modules.upsampling.Upsample    [None, 2, 'nearest']
 16           [-1, 9]  1         0  models.common.Concat                    [1]
 17                -1  3   2757632  models.common.C3                        [1024, 512, 3, False]
 18                -1  1    131584  models.common.Conv                      [512, 256, 1, 1]
 19                -1  1         0  torch.nn.modules.upsampling.Upsample    [None, 2, 'nearest']
 20           [-1, 6]  1         0  models.common.Concat                    [1]
 21                -1  3    690688  models.common.C3                        [512, 256, 3, False]
 22                -1  1    590336  models.common.Conv                      [256, 256, 3, 1]
 23                -1  1         0  models.common.space_to_depth            [1]
 24          [-1, 18]  1         0  models.common.Concat                    [1]
 25                -1  3   2888704  models.common.C3                        [1280, 512, 3, False]
 26                -1  1   2360320  models.common.Conv                      [512, 512, 3, 1]
 27                -1  1         0  models.common.space_to_depth            [1]
 28          [-1, 14]  1         0  models.common.Concat                    [1]
 29                -1  3  11544576  models.common.C3                        [2560, 1024, 3, False]
 30      [21, 25, 29]  1     32310  models.yolo.Detect                      [1, [[10, 13, 16, 30, 33, 23], [30, 61, 62, 45, 59, 119], [116, 90, 156, 198, 373, 326]], [256, 512, 1024]]
YOLOv5l_SPD summary: 375 layers, 52282294 parameters, 52282294 gradients
1667960030842 VM-0-6-ubuntu error [34m[1mAMP: [0mchecks passed âœ…
[34m[1mAutoBatch: [0mComputing optimal batch size for --imgsz 640
…
